Setting Backbone: resnet50
Setting Patchsize: 256
Setting Backbone: resnet50
Setting Patchsize: 256
Setting Backbone: resnet50
Setting Patchsize: 256

Training Fold 0!

Init train/val/test splits...
Done!
Training on 846 samples
Validating on 106 samples
Testing on 106 samples

Init loss function... Done!

Init Model... Done!
MambaMIL(
  (_fc1): Sequential(
    (0): Linear(in_features=1536, out_features=512, bias=True)
    (1): GELU(approximate='none')
  )
  (norm): LayerNorm((512,), eps=1e-05, elementwise_affine=True)
  (layers): ModuleList(
    (0-1): 2 x Sequential(
      (0): LayerNorm((512,), eps=1e-05, elementwise_affine=True)
      (1): SRMamba(
        (in_proj): Linear(in_features=512, out_features=2048, bias=False)
        (conv1d): Conv1d(1024, 1024, kernel_size=(4,), stride=(1,), padding=(3,), groups=1024)
        (conv1d_b): Conv1d(1024, 1024, kernel_size=(4,), stride=(1,), padding=(3,), groups=1024)
        (act): SiLU()
        (x_proj): Linear(in_features=1024, out_features=64, bias=False)
        (x_proj_b): Linear(in_features=1024, out_features=64, bias=False)
        (dt_proj): Linear(in_features=32, out_features=1024, bias=True)
        (dt_proj_b): Linear(in_features=32, out_features=1024, bias=True)
        (out_proj): Linear(in_features=1024, out_features=512, bias=False)
      )
    )
  )
  (classifier): Linear(in_features=512, out_features=2, bias=True)
  (attention): Sequential(
    (0): Linear(in_features=512, out_features=128, bias=True)
    (1): Tanh()
    (2): Linear(in_features=128, out_features=1, bias=True)
  )
)
Total number of parameters: 4489987
Total number of trainable parameters: 4489987

Init optimizer ... Done!

Init Loaders... Done!

Setup EarlyStopping... Done!


batch 19, loss: 0.0012, label: 0, bag_size: 196
batch 39, loss: 1.9083, label: 0, bag_size: 3207
batch 59, loss: 1.2864, label: 1, bag_size: 416
batch 79, loss: 0.0841, label: 0, bag_size: 204
…
