Setting Backbone: resnet50
Setting Patchsize: 256
Setting Backbone: resnet50
Setting Patchsize: 256
Setting Backbone: resnet50
Setting Patchsize: 256

Training Fold 0!

Init train/val/test splits...
Done!
Training on 756 samples
Validating on 101 samples
Testing on 96 samples

Init loss function... Done!

Init Model... Done!
TransMIL(
  (_fc1): Sequential(
    (0): Linear(in_features=1536, out_features=512, bias=True)
    (1): ReLU()
  )
  (pos_layer): PPEG(
    (proj): Conv2d(512, 512, kernel_size=(7, 7), stride=(1, 1), padding=(3, 3), groups=512)
    (proj1): Conv2d(512, 512, kernel_size=(5, 5), stride=(1, 1), padding=(2, 2), groups=512)
    (proj2): Conv2d(512, 512, kernel_size=(3, 3), stride=(1, 1), padding=(1, 1), groups=512)
  )
  (layer1): TransLayer(
    (norm): LayerNorm((512,), eps=1e-05, elementwise_affine=True)
    (attn): NystromAttention(
      (to_qkv): Linear(in_features=512, out_features=1536, bias=False)
      (to_out): Sequential(
        (0): Linear(in_features=512, out_features=512, bias=True)
        (1): Dropout(p=0.1, inplace=False)
      )
      (res_conv): Conv2d(8, 8, kernel_size=(33, 1), stride=(1, 1), padding=(16, 0), groups=8, bias=False)
    )
  )
  (layer2): TransLayer(
    (norm): LayerNorm((512,), eps=1e-05, elementwise_affine=True)
    (attn): NystromAttention(
      (to_qkv): Linear(in_features=512, out_features=1536, bias=False)
      (to_out): Sequential(
        (0): Linear(in_features=512, out_features=512, bias=True)
        (1): Dropout(p=0.1, inplace=False)
      )
      (res_conv): Conv2d(8, 8, kernel_size=(33, 1), stride=(1, 1), padding=(16, 0), groups=8, bias=False)
    )
  )
  (norm): LayerNorm((512,), eps=1e-05, elementwise_affine=True)
  (classifier): Linear(in_features=512, out_features=2, bias=True)
)
Total number of parameters: 2934290
Total number of trainable parameters: 2934290

Init optimizer ... Done!

Init Loaders... Done!

Setup EarlyStopping... Done!


batch 19, loss: 5.8488, label: 0, bag_size: 944
batch 39, loss: 0.6875, label: 0, bag_size: 2205
batch 59, loss: 0.0132, label: 1, bag_size: 606
batch 79, loss: 1.5004, label: 1, bag_size: 1855
…
